binary_classifier.pt (torch, 563500 bytes, 6 tensors)

layer1.weight f4 [128, 963]
0	0xbd52b4f8	-0.051442116
1	0xbcd0fb07	-0.025510324
2	0x3d27ade0	0.040937304
3	0xbcce42cf	-0.025178341
4	0x3afc27c6	0.0019237928
5	0xbb8e9001	-0.0043506627
6	0xbcc5640d	-0.02409556
7	0x3c8f1b82	0.017469171
8	0x3cb0ea88	0.021596208
9	0x3d13aa54	0.03605111
10	0xbb907eb4	-0.0044096354
11	0x3c81d858	0.015850231
12	0xbac3dc21	-0.0014942923
13	0x3bc499a0	0.005999759
14	0x3ca12532	0.019671056
15	0xbc8e713f	-0.017387984
16	0xbd2b71aa	-0.041856445
17	0xbd06dd82	-0.03292609
18	0x3d3ad2a1	0.045611028
19	0xbccbae85	-0.02486349
20	0x3d38f2a8	0.04515329
21	0xbd240d76	-0.0400519
22	0x3dc12650	0.09431136
23	0xbc136364	-0.008995865
24	0xbda38bab	-0.07985624
25	0x3ca6b0b1	0.020347925
26	0xbc774e72	-0.015094386
27	0xbbe28180	-0.0069124103
28	0xbcc9cc4e	-0.024633553
29	0xba46d45d	-0.0007584745
30	0x3ccf059e	0.025271233
31	0xba802416	-0.000977638
32	0x3cf841b0	0.03030476
33	0x3c867a29	0.016415672
34	0xbdbf28e2	-0.0933397
35	0x3c897314	0.016778506
36	0x3c90750c	0.017633937
37	0x3c48a19d	0.012245563
38	0xbd7b6ac6	-0.061381124
39	0xbcc78e92	-0.024359975
40	0xb8fa3430	-0.000119306496
41	0xbd019569	-0.03163663
42	0xbd48d5fd	-0.0490322
43	0x3d161bfe	0.03664779
44	0x3d8109b0	0.06300676
45	0xbd537c1e	-0.05163204
46	0xbd01c492	-0.031681605
47	0x3d1e89bc	0.038705572
48	0x3d803aef	0.06261241
49	0xbd1d0034	-0.03833027
50	0x3c903a5d	0.017605955
51	0xbdb88c69	-0.09011156
52	0x3ba62f1a	0.005071533
53	0x3d3954c9	0.045246873
54	0xbd95ad53	-0.073084496
55	0x3ce86c58	0.028371975
56	0xbd9e377b	-0.07725426
57	0x3cf8135d	0.03028267
58	0x3d3fffb5	0.04687472
59	0xbd440761	-0.0478586
60	0x3ad68cc9	0.0016368862
61	0xbd511474	-0.051044896
62	0x3d6f80a0	0.058472276
63	0x3c2547b9	0.010087901
64	0x3b9f1de7	0.0048558596
65	0x3d2f16b6	0.04274627
66	0xbd1e94fe	-0.03871631
67	0xbcaef97f	-0.021359203
68	0x3c72e1e5	0.014824365
69	0x3c59cb8a	0.013293156
70	0x3d110efd	0.035414685
71	0x3cd694b3	0.026193952
72	0xbde33f7e	-0.110960945
73	0x3cd3c31f	0.025849877
74	0x3c04e3fb	0.008110995
75	0x3d57c457	0.05267748
76	0xbac0096a	-0.0014651243
77	0x3c8b65d0	0.017016321
78	0xbd96bb0a	-0.073598936
79	0x3b2fd06e	0.0026827115
80	0xbc9963d7	-0.018724365
81	0xbd687c5a	-0.056759216
82	0xbd19f18f	-0.037583884
83	0x3d447214	0.047960356
84	0xbdc77e48	-0.09740883
85	0xbce465b1	-0.027880521
86	0xbd4860a9	-0.048920307
87	0xbd005d03	-0.031338703
88	0xbcc6a169	-0.024246888
89	0xbc1deb1b	-0.009638573
90	0xbd5da8c7	-0.054116037
91	0xbcf08650	-0.02936092
92	0xbcf4eae6	-0.029897165
93	0x3ce7a7bb	0.028278222
94	0x3c2e6370	0.010643825
95	0xbc88ced1	-0.01670018
96	0xbcbf1011	-0.02332309
97	0x3d68a2c0	0.056795835
98	0x3d46e61d	0.048559297
99	0xbd81eb96	-0.063437626
100	0xbd01b730	-0.03166884
101	0xbc51931f	-0.012791424
102	0x3d6c7403	0.057727825
103	0xbd6fe142	-0.058564432
104	0xbcecbe68	-0.028899387
105	0xbdb35ae8	-0.08757573
106	0x3bfdd532	0.007746362
107	0x3c6feb69	0.0146435285
108	0xbb16c7b4	-0.0023007216
109	0x3d5e24f0	0.054234445
110	0xbd1b1800	-0.037864685
111	0xbd27705b	-0.040878635
112	0xbc81bd12	-0.015837226
113	0x3ccefee8	0.025268033
114	0x3c4c484d	0.01246841
115	0x3d9b1d03	0.07573893
116	0x3c981e34	0.01856909
117	0xbd8dce4e	-0.06924115
118	0xbd9933aa	-0.07480557
119	0xbd7ff110	-0.062485754
120	0xbd76653c	-0.06015514
121	0x3c9db0b7	0.019249303
122	0x3d664031	0.05621356
123	0xbdb3dacf	-0.08781969
124	0xbca4d370	-0.020120353
125	0xbd2fca19	-0.042917345
126	0xbd3a40af	-0.045471843
127	0x3d505c89	0.0508695
128	0xbd0e595a	-0.03475318
129	0x3c7a4913	0.015276211
130	0xbd6c5d6b	-0.057706278
131	0xbc5a34e8	-0.013318278
132	0xbcc9b449	-0.0246221
133	0xbc0963a1	-0.00838557
134	0xbd2815a6	-0.04103627
135	0xbdcbf8f6	-0.09959595
136	0xbd7612c5	-0.060076494
137	0x3d103024	0.03520216
138	0x3cc90e83	0.024543053
139	0x3cefdb7b	0.029279461
140	0xbc25757d	-0.010098812
141	0xbccca776	-0.024982195
142	0x3caa457a	0.020785082
143	0xbbc26b5b	-0.005933208
144	0xbc9ea08d	-0.019363666
145	0x3c4862e8	0.012230612
146	0xbd94e789	-0.07270724
147	0xbd5076eb	-0.05089466
148	0x3d884078	0.066529214
149	0x3ba6eba3	0.005094008
150	0x3c2a9c5e	0.010413257
151	0xbd92f793	-0.07176127
152	0x3bccfc3e	0.0062556555
153	0x3d98c4bc	0.07459399
154	0xbc9ca36f	-0.0191209
155	0x3e4eaa2e	0.20182106
156	0xbbb045f3	-0.0053794323
157	0x3d128f8a	0.03578142
158	0x3ca71b5a	0.020398784
159	0xbdc06073	-0.09393396
160	0xbd187142	-0.037217386
161	0x3a8b2d12	0.001061829
162	0x3cd04ed7	0.025428219
163	0xbda3f968	-0.08006555
164	0x3c3a4422	0.011368783
165	0xbb1a912f	-0.0023585071
166	0xbc36bee9	-0.011153915
167	0xbceabd74	-0.028654791
168	0xbdcd7157	-0.100313835
169	0x3c04baf0	0.00810121
170	0x3d4d20e6	0.050080203
171	0xbd1664a4	-0.036717072
172	0x3d2891f2	0.04115481
173	0xbcc99e2c	-0.024611555
174	0xbd72aba3	-0.059245717
175	0xbc996601	-0.018725397
176	0xbd292c2c	-0.04130189
177	0x3b636bb2	0.0034701643
178	0xbc194a1b	-0.009356047
179	0x3b78ee13	0.00379837
180	0xbda0e419	-0.07856006
181	0xbe008f20	-0.12554598
182	0x3d681cfb	0.056668263
183	0x3cbf6b1b	0.023366502
184	0x3d234325	0.039858956
185	0x3d21342b	0.039356392
186	0xbce9a94a	-0.028523106
187	0xbd042f1a	-0.032271482
188	0xbd2bf066	-0.04197731
189	0x3d7d620d	0.061861087
190	0xbdb32f08	-0.08749205
191	0xbd19f211	-0.03758437
192	0x3d0001d7	0.031251755
193	0xbd6c2332	-0.057650752
194	0xbd39ee22	-0.045393117
195	0xbbb6b309	-0.005575542
196	0xbd9f7615	-0.07786194
197	0xbcf3d58e	-0.029764917
198	0x3b94342b	0.0045228205
199	0x3c0a444d	0.008439136
200	0x3ca8e699	0.02061777
201	0x3c659773	0.014013159
202	0xbcb0e64a	-0.021594185
203	0x3bbfd4f7	0.005854245
204	0x3d8df5f8	0.069316804
205	0x3d6daead	0.058027912
206	0x3ce4af55	0.027915636
207	0xbc6339b3	-0.013868737
208	0x3bfd50f8	0.0077305995
209	0x3ad2a39b	0.0016070487
210	0xbc5f9f26	-0.013648784
211	0xbcf07977	-0.029354794
212	0x3c6f6d39	0.014613443
213	0xbcd00659	-0.025393652
214	0xbdc414cc	-0.09574279
215	0xbbea5ab3	-0.0071519255
216	0xbc28349d	-0.01026645
217	0xbca986f8	-0.02069424
218	0x3d21ea66	0.03953018
219	0xbd1b116a	-0.037858404
220	0xbc5999e9	-0.013281324
221	0x3dce421d	0.10071204
222	0xbd94d39b	-0.07266923
223	0x3db7e7a4	0.08979729
224	0xbbc4f1ca	-0.006010269
225	0x3c790544	0.015199009
226	0xbd7b9a6f	-0.061426576
227	0x3e26761f	0.16255997
228	0x3ce9c6e5	0.028537223
229	0x3c283197	0.010265729
230	0xbc6860ce	-0.014183236
231	0xbd00060e	-0.031255774
232	0xbd1a5ff6	-0.03768917
233	0x3d2a0907	0.041512515
234	0x3cf86ca1	0.030325236
235	0xbd30fd35	-0.043210227
236	0x3c767abc	0.015043911
237	0xbcb09199	-0.021553801
238	0xbd38120a	-0.04493908
239	0x3ceb499f	0.028721629
240	0x3a286881	0.00064242637
241	0xbcf3b1c3	-0.02974785
242	0x3aaeca1c	0.001333538
243	0x3c9050f3	0.017616725
244	0xbcecdf46	-0.028915059
245	0xbbc5b16b	-0.0060331128
246	0x3caec5fd	0.021334643
247	0xbce87dfd	-0.028380388
248	0xbdb82915	-0.08992211
249	0x3b7317ad	0.003709297
250	0x3cec6eb8	0.028861389
251	0xbcd15737	-0.025554283
252	0xbc2bdd75	-0.010489811
253	0xbccfd941	-0.02537215
254	0x3d0a628c	0.033785388
255	0x3d663c86	0.056210063

layer1.bias f4 [128]
0	0x3cca9922	0.024731223
1	0x3cde74f4	0.027155377
2	0x3cf247db	0.029575279
3	0x3ce57926	0.02801187
4	0xbc965a85	-0.01835371
5	0xbcb4de65	-0.022078702
6	0x3cb1972d	0.021678532
7	0x3d0e35d2	0.034719296
8	0x3d240928	0.040047795
9	0x3d65b719	0.05608282
10	0x3d09ae77	0.03361365
11	0x3d6818dd	0.056664336
12	0x3d2e2b2d	0.042521644
13	0x3ce3cfe0	0.027809083
14	0xbcafb88e	-0.021450307
15	0x3ce2d4d8	0.027689382
16	0x3cc5ce3a	0.024146188
17	0x3d1810e4	0.037125483
18	0x3cb78213	0.022400891
19	0x3d35a654	0.044348076
20	0xbce19636	-0.027537446
21	0x3cd8db0e	0.02647164
22	0x3d060c4a	0.032726564
23	0xbc92a0b6	-0.017898899
24	0xbcdc2275	-0.0268719
25	0x3d0a136b	0.033709925
26	0x3cf6008b	0.030029556
27	0x3cf311ca	0.029671568
28	0x3cce2aad	0.025166834
29	0x3cbc4ac3	0.022984868
30	0x3d0a6186	0.03378441
31	0x3d50b85b	0.050957065
32	0xbc50b9e7	-0.012739635
33	0x3c884de0	0.016638696
34	0x3cc66cd4	0.024221815
35	0x3d3ea206	0.046541236
36	0x3d39e5df	0.045385238
37	0x3e11e678	0.14248073
38	0xbce919a6	-0.028454613
39	0x3d53a2b1	0.051668826
40	0xbcd98f05	-0.026557455
41	0x3d4dd816	0.050254904
42	0x3d2e6093	0.04257257
43	0xbc812765	-0.015765855
44	0x3cb2bc3c	0.021818273
45	0x3cc46119	0.023972081
46	0x3d18d68f	0.037313994
47	0xbcd1b3f8	-0.025598511
48	0x3d410efc	0.04713343
49	0x3c88176f	0.016612737
50	0xbc7f4165	-0.015579556
51	0x3ca1635e	0.019700702
52	0xbc0edad1	-0.008719162
53	0x3cdd7b85	0.027036438
54	0x3d0ad2eb	0.033892553
55	0x3cc4a7ac	0.024005733
56	0x3c6abc07	0.014327056
57	0x3d14dad2	0.036341496
58	0x3d11f12d	0.035630394
59	0x3d3e4616	0.046453558
60	0x3cf4dd81	0.029890778
61	0x3d04ea4a	0.032449998
62	0xbcd20532	-0.025637243
63	0x3cc6e910	0.024281055
64	0x3d322853	0.043495487
65	0x3d146dc5	0.036237497
66	0x3cdaf729	0.026729183
67	0x3d037b52	0.03210003
68	0xbc3f476e	-0.011674745
69	0xbcbea822	-0.023273531
70	0xbbec39ec	-0.0072090533
71	0x3d4db380	0.050220013
72	0x3d02337a	0.031787373
73	0x3d3f940b	0.046772044
74	0x3cc51ec0	0.024062514
75	0x3d894ee8	0.06704503
76	0xbc560f7a	-0.013065213
77	0x3d3dde1c	0.046354398
78	0x3cf2470b	0.029574892
79	0x3cf421c8	0.029801264
80	0x3d0cc72b	0.03436963
81	0x3cf28365	0.02960367
82	0x3c268c3a	0.010165269
83	0x3d3a2afa	0.045451142
84	0xbcb8aff8	-0.022544846
85	0xbcb8836a	-0.0225236
86	0x3d268e1f	0.04066288
87	0xbd0311b5	-0.03199931
88	0x3d8c660c	0.068554014
89	0x3d097c04	0.033565536
90	0xbc9e6a48	-0.019337788
91	0x3d1a1b41	0.037623648
92	0x3d1917b5	0.037376124
93	0x3d54923d	0.051897276
94	0x3d0d7a32	0.034540363
95	0x3d2ae92d	0.04172628
96	0x3cc99e15	0.024611512
97	0x3d5407b3	0.051765155
98	0xbce5794b	-0.028011939
99	0x3cf44221	0.029816689
100	0x3dc233cb	0.09482535
101	0xbbf598fe	-0.0074950447
102	0x3d42f2a3	0.047594678
103	0xbce2f01b	-0.027702382
104	0x3cb2bdbb	0.021818986
105	0x3cdf47b2	0.027255867
106	0x3d05d191	0.03267056
107	0x3cbc75a6	0.023005318
108	0x3cbaa0cd	0.022781754
109	0xbc8891cf	-0.01667109
110	0x3d83fdbf	0.064448826
111	0x3d58d893	0.052940916
112	0x3cc27067	0.023735238
113	0x3cdc353d	0.026880855
114	0x3c9043db	0.017610481
115	0x3d840333	0.06445923
116	0x3cc24980	0.023716688
117	0x3d6e68ab	0.058205288
118	0x3d1d1e53	0.038358998
119	0x3d6afa32	0.05736751
120	0x3d075c91	0.033047263
121	0x3ccdc483	0.025118118
122	0xbc99e8c8	-0.018787757
123	0xbd01f02e	-0.031723194
124	0x3d10d774	0.035361722
125	0x3d4e677e	0.050391667
126	0x3d15aa6d	0.036539484
127	0x3cd84259	0.026398825

layer2.weight f4 [128, 128]
0	0xbd3028e7	-0.043007758
1	0x3e65bfd4	0.22436458
2	0x3e4c06c7	0.1992446
3	0xbda40191	-0.08008111
4	0x3cd471fb	0.025933256
5	0xbcc4cba2	-0.024022881
6	0xbc6d98bd	-0.014501748
7	0x3df1b529	0.11802132
8	0x3cb518f6	0.022106629
9	0x3cd68a5b	0.02618902
10	0xbcbb4e35	-0.02286444
11	0x3d167e24	0.03674139
12	0xbd560d34	-0.052258685
13	0xbe4ea1f7	-0.20178972
14	0xbd7d30f4	-0.061814263
15	0x3d6d77e0	0.05797565
16	0xbd8c250c	-0.06843004
17	0xbdf4b78c	-0.11949071
18	0xbd48b326	-0.048998974
19	0x3b165856	0.0022940836
20	0x3d24c779	0.040229294
21	0x3e00cf71	0.12579133
22	0x3e35dd27	0.17760144
23	0x3d849d76	0.06475346
24	0xbd973bed	-0.07384477
25	0xbdde531c	-0.108556956
26	0xbda7a3be	-0.08185528
27	0x3e389f65	0.18029554
28	0x3e5ea512	0.21742657
29	0x3e3b8d1e	0.1831555
30	0x3d0fd775	0.035117585
31	0x3d0777a8	0.033073097
32	0xbd754a83	-0.059885513
33	0xbdd4d443	-0.10392048
34	0xbdbe1613	-0.09281554
35	0xbd327aa4	-0.04357399
36	0x3d43dc43	0.04781748
37	0x3dcc2bfc	0.09969327
38	0x3d84462c	0.06458697
39	0x3df6ef90	0.12057412
40	0x3cc25ae8	0.023724988
41	0x3c24578e	0.01003064
42	0x3e214d6f	0.15752195
43	0x3d611e5a	0.054960586
44	0x3d7ba89f	0.061440106
45	0x3d65000e	0.055908255
46	0x3dcecfc4	0.10098222
47	0x3c111de3	0.008857223
48	0xbd92fc94	-0.07177082
49	0xbe072631	-0.13198163
50	0x3d12a534	0.03580208
51	0xbe01eb9e	-0.12687537
52	0xbc584534	-0.013200093
53	0xbdfedc17	-0.124443226
54	0x3e3458f0	0.17612052
55	0x3d3d8187	0.046266105
56	0xbd9cb7c3	-0.07652237
57	0x3e3d9b11	0.18516184
58	0x3da4f17d	0.08053873
59	0x3e372ca0	0.17888117
60	0x3d265722	0.04061044
61	0x3df51dde	0.11968587
62	0x3da6924f	0.08133375
63	0xbe0696be	-0.13143441
64	0x3df8a9f7	0.12141793
65	0xbde73e98	-0.11291236
66	0xbd33110b	-0.043717425
67	0xbd37ad36	-0.04484292
68	0x3d2af3e9	0.041736517
69	0xbb2625e3	-0.0025352172
70	0x3da8fd50	0.082514405
71	0xbd07a577	-0.033116784
72	0x3e34913f	0.17633532
73	0xbd99a31e	-0.07501815
74	0x3dbcbc23	0.09215572
75	0x3e40b264	0.1881805
76	0x3c8cc892	0.017185483
77	0x3e23c6d9	0.15993823
78	0xbe22d1b0	-0.15900302
79	0x3e189691	0.14901187
80	0x3e290bbc	0.16508383
81	0x3d54f1b8	0.051988333
82	0xbe0596f5	-0.13045867
83	0x3dd4528e	0.103673086
84	0xbd981ea4	-0.07427719
85	0x3c8d3fa1	0.017242255
86	0xbdf58c76	-0.119896814
87	0xbd22f62f	-0.03978556
88	0x3c61d5aa	0.013783852
89	0x3df9d9dc	0.121997565
90	0xbcc16aed	-0.023610556
91	0xbe0a7108	-0.1351968
92	0x3e29fa61	0.16599418
93	0x3db3c31a	0.08777447
94	0x3e51e885	0.20498855
95	0xbe2b0b7a	-0.16703597
96	0x3e0e8a8b	0.13920037
97	0xbe038a73	-0.12845783
98	0x3d9a8048	0.07543999
99	0x3d89a597	0.06721037
100	0x3db98e6b	0.09060367
101	0x3a60b117	0.00085713103
102	0xbc279bad	-0.010229987
103	0x3cff4335	0.031159976
104	0x3dc76112	0.097353116
105	0xbdbca0e4	-0.09210375
106	0x3e08e26f	0.13367628
107	0x3e05341b	0.13008158
108	0xbe00202c	-0.12512273
109	0x3d78ad5d	0.060712207
110	0x3d963a12	0.07335295
111	0x3e3461a1	0.17615367
112	0x3e23b068	0.15985262
113	0x3ddcaa7c	0.10774705
114	0xbda632bf	-0.08115148
115	0x3dddd761	0.10832096
116	0x3e1ee804	0.15518194
117	0x3dc519a9	0.09624035
118	0xbdfbd579	-0.12296576
119	0x3d1bf5f7	0.038076367
120	0x3de3910f	0.11111652
121	0xbe1ee4b7	-0.15516935
122	0x3da4a9c4	0.08040193
123	0x3d4f8cc4	0.050671354
124	0x3dff6f11	0.12472356
125	0x3e12857d	0.14308734
126	0x3e2f74d3	0.17134409
127	0x3dd29634	0.10282555
128	0xbdc09fcc	-0.09405479
129	0x3e8a67ae	0.27032226
130	0x3e4f02e3	0.20215945
131	0xbdcf24f1	-0.10114468
132	0xbc8a5fe8	-0.016891435
133	0x3d05de24	0.032682553
134	0xbe09b2c1	-0.13447095
135	0x3de19a2a	0.110157326
136	0x3d717976	0.058953725
137	0x3c699636	0.0142570045
138	0xbc36bb5d	-0.011153069
139	0x3e46fe55	0.19432957
140	0xbd910d8f	-0.07082664
141	0xbe48982b	-0.19589297
142	0x3d43581b	0.047691446
143	0x3e198a60	0.14994192
144	0xbccf5c87	-0.025312675
145	0xbd5f0835	-0.054451186
146	0xbd50a36c	-0.0509371
147	0xbcad24bb	-0.021135679
148	0x3d3b9e3a	0.045805193
149	0x3e25959c	0.16170353
150	0x3e2eee49	0.17083086
151	0x3d9f2340	0.07770395
152	0xbcfbf77f	-0.030757664
153	0xbc8ad89f	-0.016948996
154	0xbcf96c38	-0.03044711
155	0x3dfbbb11	0.122915395
156	0x3e667e33	0.22509079
157	0x3e3b3d34	0.18285066
158	0x3e130a1a	0.14359322
159	0x3db9c6d8	0.090711296
160	0x3b9507db	0.0045480556
161	0xbd740e7e	-0.059584133
162	0xbe080fae	-0.13287231
163	0x3d0455fb	0.03230856
164	0x3dae6321	0.08515001
165	0x3c53542c	0.012898486
166	0x3d316cf3	0.043316793
167	0x3daff4c3	0.085916065
168	0xbc9a880f	-0.018863706
169	0x3d8fd481	0.07022954
170	0x3df07679	0.11741347
171	0xbd6246b2	-0.0552432
172	0x3dcfe56c	0.101511806
173	0x3e29f898	0.16598737
174	0x3ddfb444	0.10923055
175	0x3d4a7e19	0.049436662
176	0xbd9b6cf6	-0.07589142
177	0xbd7f7e0d	-0.06237607
178	0x3d171aeb	0.036890905
179	0xbd9f08a0	-0.07765317
180	0xbd8afc2c	-0.06786379
181	0xbd5caa90	-0.0538736
182	0x3e3a14c9	0.18171991
183	0x3e997c30	0.2997756
184	0xbcd829cb	-0.026387116
185	0x3e043503	0.12910847
186	0x3e66735d	0.22504945
187	0x3e15c0fa	0.14624396
188	0x3e0fea3b	0.14054196
189	0x3e88886d	0.26666585
190	0x3d45d790	0.04830128
191	0xbc9d580e	-0.019207027
192	0x3d83476c	0.06410107
193	0xbddf01f4	-0.108890444
194	0xbdcc12b7	-0.09964507
195	0xbdd0a446	-0.10187583
196	0x3cf1a909	0.029499548
197	0xbccf894f	-0.025334029
198	0xbd8f98ff	-0.070116036
199	0xbd8bf1b8	-0.068332136
200	0x3e387568	0.18013537
201	0xbd390b04	-0.04517652
202	0x3e583d65	0.2111717
203	0x3def8f96	0.11697309
204	0x3d1c6aa9	0.038187657
205	0x3da93d67	0.08263665
206	0xbdd05ade	-0.101735815
207	0x3e8ab046	0.2708761
208	0x3e03a95e	0.12857577
209	0x3e6b6c1f	0.22990464
210	0xbdb9e131	-0.09076155
211	0x3d5d8c8d	0.054089118
212	0x3d99043b	0.0747151
213	0x3cf6615f	0.030075727
214	0xbe050151	-0.12988783
215	0xbcc99e77	-0.024611695
216	0x3e57ff41	0.21093465
217	0x3e41e188	0.1893369
218	0x3d58b7f6	0.052909814
219	0xbdb1cdaf	-0.08681809
220	0x3e7dd2ed	0.24787493
221	0x3e395331	0.18098141
222	0x3e1fb8ac	0.1559779
223	0x3cd0509c	0.025429063
224	0x3e93c045	0.28857628
225	0xbde8c6b4	-0.113660246
226	0x3ca3e3d9	0.020006107
227	0x3e837a3a	0.2567919
228	0xbccd97eb	-0.025096854
229	0x3d491ee8	0.04910174
230	0xbd49aeb7	-0.049238887
231	0xbd6abf20	-0.057311177
232	0x3e61a2bd	0.22034736
233	0xbbdc81c3	-0.006729336
234	0x3d86d0d1	0.06582797
235	0x3dde1a1f	0.10844826
236	0xbdd758fe	-0.10515021
237	0xbd083bd8	-0.033260196
238	0x3dbd6d53	0.092493676
239	0x3e20b5eb	0.15694396
240	0x3e1183c5	0.14210422
241	0x3e7a4618	0.24440801
242	0xbd1a3807	-0.037651088
243	0x3e199349	0.14997591
244	0x3e881c31	0.26584008
245	0x3e226bf1	0.15861489
246	0xbdea0d6b	-0.114283405
247	0x3e4b3518	0.19844472
248	0x3e293e30	0.16527629
249	0xbcddfbb1	-0.027097555
250	0xbb73f7bc	-0.0037226519
251	0xbc6d9a13	-0.014502066
252	0x3e3aa327	0.182263
253	0x3e4b97a3	0.19882064
254	0x3e1ccdc0	0.15312862
255	0x3dc611e6	0.096713826

layer2.bias f4 [128]
0	0x3db00519	0.08594722
1	0x3be906d9	0.007111412
2	0x3deb6ea2	0.11495711
3	0x3dc14df0	0.094386935
4	0xbd1de3df	-0.038547393
5	0x3ca3c975	0.019993523
6	0x3dd62f9a	0.10458298
7	0x3dd02221	0.101627596
8	0x3d4c1a51	0.049829785
9	0x3d79869b	0.060919385
10	0x3d20e583	0.03928138
11	0x3d436f62	0.047713645
12	0x3dee3e07	0.116329245
13	0x3d69733b	0.056994658
14	0x3d841308	0.064489424
15	0x3d96b735	0.07359163
16	0x3c04864c	0.0080886595
17	0xbd68ccfb	-0.05683611
18	0x3cb2e28d	0.021836543
19	0xbb313c89	-0.0027044138
20	0x3debfc88	0.11522776
21	0x3cacbf72	0.021087382
22	0xbbdb6acc	-0.006696081
23	0x3d822a26	0.063556954
24	0x3d300ae4	0.042979136
25	0x3d6ebc48	0.058285028
26	0x3df24711	0.11829961
27	0x3ddce9b7	0.10786765
28	0x3c86f6ed	0.016475165
29	0x3da594eb	0.080850445
30	0x3dbeb32d	0.09311519
31	0xbd97fcc8	-0.07421261
32	0x3dca9904	0.09892467
33	0x3d5bfc74	0.053707555
34	0x3c8dcfd9	0.017311024
35	0x3dd9ea28	0.10640365
36	0x3dbad225	0.09122113
37	0xbc3913a3	-0.011296186
38	0x3ddf0d2c	0.10891184
39	0xbdb247a4	-0.087050706
40	0x3d6f4556	0.058415733
41	0x3af9ee8b	0.0019068284
42	0x3da69006	0.08132939
43	0x3d8fa39f	0.0701363
44	0x3d1cab07	0.038249042
45	0x3ddc20a1	0.10748411
46	0x3dd3897f	0.1032896
47	0x3d5d1325	0.053973336
48	0x3dcbbcfe	0.09948157
49	0x3e01b355	0.12666066
50	0x3cea841a	0.028627444
51	0x3da1b518	0.07895869
52	0x3dbaaa62	0.09114529
53	0x3d5b0fee	0.05348199
54	0x3a71baba	0.0009221245
55	0xbdbade45	-0.09124426
56	0x3d280f2b	0.04103009
57	0x3d56afb0	0.052413642
58	0x3d7140ca	0.05889968
59	0x3dcafcd2	0.09911503
60	0x3c4aa4c5	0.012368386
61	0xbd2fc67b	-0.042913895
62	0xbd5e605b	-0.05429111
63	0x3d97e0cb	0.07415923
64	0x3dda990a	0.10673721
65	0x3dec868c	0.115491
66	0x3dc713f9	0.09720606
67	0xbd286994	-0.041116312
68	0x3dbdc768	0.09266549
69	0x3da4319c	0.08017275
70	0xbd47d5ad	-0.04878776
71	0x3d31b9fb	0.043390255
72	0x3c85d02a	0.016334612
73	0xbd8a5d6f	-0.06756102
74	0x3d970b31	0.073751815
75	0x3dd08413	0.10181441
76	0x3d6c1c80	0.057644367
77	0x3d961160	0.07327533
78	0x3de17d5c	0.110102385
79	0x3dda0a8e	0.106465444
80	0x3b569b20	0.003274627
81	0x3dbc3ffa	0.0919189
82	0x3d6f0da5	0.05836262
83	0x3d9830cb	0.074311815
84	0x3d9b3dd7	0.075801544
85	0x3de038a8	0.10948306
86	0xbc808bac	-0.0156916
87	0xbca1c8a3	-0.019748991
88	0x3d857645	0.06516699
89	0xbdb15174	-0.08658114
90	0x3dc602b2	0.09668483
91	0xbbe5c38d	-0.007011837
92	0x3e0501e9	0.1298901
93	0x3dcd3eee	0.100217685
94	0x3c49f19b	0.01232567
95	0x3d9fe2d4	0.07806936
96	0x3dfb17dd	0.12260411
97	0xbc8dec7b	-0.017324677
98	0x3de27eb2	0.110593215
99	0xbd041da0	-0.032254815
100	0x3d978e3f	0.07400178
101	0xbb73d6dd	-0.0037206926
102	0x3dc1d95e	0.094652876
103	0xbc0be26c	-0.00853787
104	0x3da2fa3e	0.07957886
105	0xbdb28c79	-0.08718199
106	0x3db9d469	0.09073717
107	0x3d0e6ce7	0.034771826
108	0x3d8b1f17	0.06793039
109	0x3db01752	0.08598198
110	0x3c8c5c92	0.017133985
111	0x3db94b9a	0.09047623
112	0x3d82218a	0.06354053
113	0x3de1059c	0.10987398
114	0x3d3aa80b	0.045570415
115	0x3df1d5cc	0.11808357
116	0x3c388ad7	0.011263571
117	0x3d921ed3	0.071347855
118	0xbd56d5eb	-0.0524501
119	0x3ddde62e	0.10834919
120	0xbd8b5205	-0.06802753
121	0x3d495095	0.049149115
122	0x3cac4a60	0.021031559
123	0x3d0c2ef5	0.03422447
124	0x3c443c54	0.011977274
125	0x3d99bcbc	0.07506701
126	0x3da755e1	0.08170677
127	0x3d478a9e	0.04871618

output.weight f4 [2, 128]
0	0xbdb90ac7	-0.09035259
1	0xbe920a6f	-0.28523585
2	0xbdc93c51	-0.098259576
3	0x3e2e7728	0.17037642
4	0x3cd7a9ef	0.026326148
5	0x3e434432	0.19068983
6	0xbe48f8b2	-0.1962612
7	0xbe3e1d42	-0.18565848
8	0x3e40b5f7	0.18819414
9	0x3e34c1e1	0.17652084
10	0xbe484f35	-0.19561465
11	0x3e889f20	0.26683903
12	0xbe0cf797	-0.13766323
13	0xbe1a9905	-0.15097435
14	0xbdf51b81	-0.119681366
15	0xbe4c2a0f	-0.19937919
16	0xbe51f2da	-0.20502797
17	0x3d762a30	0.060098827
18	0x3e928608	0.28617883
19	0x3ea5e716	0.32402867
20	0x3d35daea	0.044398226
21	0x3e9f86ab	0.3115743
22	0xbe9c3e06	-0.3051607
23	0xbe62fea5	-0.22167452
24	0xbe59d01b	-0.21270792
25	0xbe3f923f	-0.18708132
26	0xbd9d9a25	-0.07695416
27	0xbe4e63f6	-0.2015532
28	0xbe60bec0	-0.21947765
29	0x3e80b774	0.25139964
30	0xbe381398	-0.17976224
31	0xbbeb2528	-0.00717606
32	0x3e3a1bf6	0.18174729
33	0x3e6edac4	0.2332564
34	0x3e8ad1a5	0.2711307
35	0xbd96afbd	-0.07357738
36	0x3e519846	0.20468244
37	0xbe80e708	-0.25176263
38	0x3e610dde	0.21977946
39	0x3d7d142a	0.061786808
40	0x3e75eb6e	0.2401559
41	0x3eb8bb62	0.36080462
42	0xbe55be10	-0.20873284
43	0xbdf2d385	-0.118567504
44	0x3e6a7547	0.228963
45	0xbdc9cefb	-0.098539315
46	0xbe16d04a	-0.14727893
47	0x3e4e864e	0.2016842
48	0x3e3de102	0.18542865
49	0xbddefefa	-0.10888477
50	0xbe51016c	-0.20410699
51	0x3e3e1a8b	0.18564813
52	0xbe23b463	-0.15986781
53	0xbda21586	-0.079142615
54	0x3e854fc9	0.26037434
55	0x3d21bae1	0.039484862
56	0xbe44e1d7	-0.19226776
57	0x3e69fb67	0.22849809
58	0x3e389170	0.1802423
59	0xbdfbdc17	-0.12297838
60	0xbe6b3c3a	-0.22972193
61	0x3d6dc063	0.058044802
62	0xbd976666	-0.07392578
63	0x3e083ea7	0.1330515
64	0x3e70ca4e	0.23514673
65	0x3e296b02	0.16544726
66	0x3e440a6e	0.19144604
67	0xbd61616c	-0.05502455
68	0xbd8f9ea8	-0.07012683
69	0x3e52fc45	0.20604046
70	0xbdaa51c9	-0.083163805
71	0x3ebd1027	0.36926386
72	0xbea2b16f	-0.31775996
73	0x3d2f0c51	0.042736355
74	0xbe0fce3b	-0.14043514
75	0xbdd9bc1b	-0.106315814
76	0xbe2f3ec2	-0.17113784
77	0x3e6a44d4	0.22877818
78	0xbe307298	-0.17231214
79	0xbe33fd9b	-0.17577212
80	0x3ea27e1d	0.31736842
81	0xbde5b6d5	-0.11216513
82	0xbdeff454	-0.11716524
83	0xbe4c0dc5	-0.19927128
84	0xbe4a280b	-0.19741838
85	0xbe2240bc	-0.15845007
86	0xbe48b584	-0.19600493
87	0xbd35c0b5	-0.044373233
88	0x3e80ce28	0.25157285
89	0x3c975e44	0.018477567
90	0xbd4564c5	-0.048191804
91	0xbe3dec15	-0.1854709
92	0xbe0893bf	-0.1333761
93	0x3e321efa	0.17394629
94	0x3e8915f3	0.26774558
95	0xbd9d5671	-0.07682503
96	0xbe48fe7b	-0.19628327
97	0x3d947b3c	0.072500676
98	0xbe4bc91c	-0.19900936
99	0x3ca24888	0.019809976
100	0x3e3f48a1	0.1868005
101	0xbe88152e	-0.2657866
102	0xbe2d192f	-0.16904138
103	0xbe737347	-0.23774444
104	0x3e0cb2ee	0.13740131
105	0xbd3cf6ae	-0.04613369
106	0xbe1f678b	-0.15566842
107	0xbe5d7dc7	-0.21630011
108	0x3e669fcf	0.225219
109	0xbe0b074a	-0.13577
110	0x3e61a3e0	0.2203517
111	0xbe433ea7	-0.19066869
112	0xbe54fcde	-0.20799586
113	0xbe20f479	-0.15718259
114	0xbe597756	-0.2123693
115	0xbe117803	-0.14205937
116	0x3e994b5d	0.2994031
117	0x3e41b10c	0.18915194
118	0x3d51c033	0.051208686
119	0x3e0ba654	0.13637668
120	0x3d7c9290	0.06166321
121	0xbe50b88c	-0.20382899
122	0xbe640a8b	-0.22269647
123	0x3e95903c	0.29211605
124	0x3e9c83ff	0.30569455
125	0x3e41a0db	0.18909018
126	0xbe066fd6	-0.131286
127	0xbe72d722	-0.23714879
128	0x3e4af029	0.19818176
129	0x3e7962eb	0.2435414
130	0x3e02d53c	0.12776655
131	0xbe1d7873	-0.15377979
132	0xbcd3ec55	-0.025869528
133	0xbe876113	-0.2644125
134	0x3da9626a	0.08270724
135	0x3dab81b3	0.083743475
136	0xbe5bd412	-0.21467617
137	0xbe454500	-0.19264603
138	0x3e458435	0.19288714
139	0xbe226471	-0.15858628
140	0x3e1808a9	0.14847054
141	0x3e0cbadf	0.1374316
142	0x3e389ca6	0.18028507
143	0x3e088924	0.13333565
144	0x3e2a0889	0.16604818
145	0x3d430186	0.047608875
146	0xbe98c347	-0.29836485
147	0xbe80fe26	-0.251939
148	0xbe352f4e	-0.17693827
149	0xbe4aac2f	-0.19792245
150	0x3e2190c5	0.15777881
151	0x3d53e66a	0.05173341
152	0x3dd8e0b6	0.10589735
153	0x3e2b6d12	0.16740826
154	0x3e3440ec	0.1760289
155	0x3dd41d02	0.10357095
156	0x3e8108c0	0.25201988
157	0xbe11a583	-0.14223294
158	0x3de02a63	0.109455846
159	0x3ba014c7	0.0048852894
160	0xbd9d5a41	-0.0768323
161	0xbe07c03d	-0.13256927
162	0xbe88850e	-0.26664013
163	0x3e2b272a	0.16714159
164	0xbe300ff6	-0.17193589
165	0x3e9e8aa8	0.3096516
166	0xbdfe0ac7	-0.12404399
167	0x3c0318e2	0.008001538
168	0xbe46e7fa	-0.1942443
169	0xbeb6894f	-0.35651633
170	0x3e18d657	0.14925514
171	0x3e1aa791	0.15102984
172	0xbde6efbe	-0.11276196
173	0x3e4a2b75	0.1974314
174	0x3db55286	0.08853631
175	0xbe6adc27	-0.22935544
176	0xbe1649b6	-0.14676556
177	0x3e258f02	0.16167834
178	0x3e430c64	0.19047695
179	0xbe67e5db	-0.22646277
180	0x3e0548c8	0.13016045
181	0x3e57287a	0.21011534
182	0xbe572a10	-0.2101214
183	0x3d7eae82	0.062178142
184	0x3e08e2a5	0.13367708
185	0xbe75f158	-0.24017847
186	0xbe819afb	-0.25313553
187	0x3e290648	0.16506302
188	0x3e3e4080	0.18579292
189	0x3d18f247	0.03734043
190	0xbcc052fe	-0.023477074
191	0xbe5e8eaa	-0.2173411
192	0xbdb7045c	-0.08936378
193	0xbdf7e6fb	-0.12104603
194	0xbe2eb01d	-0.1705937
195	0xbd0f5016	-0.034988485
196	0x3e442054	0.19152957
197	0xbe4e8a65	-0.20169981
198	0x3d778b05	0.060435314
199	0xbea7059e	-0.32621473
200	0x3ea14be6	0.31503218
201	0xbafdb779	-0.0019357047
202	0x3e588375	0.21143897
203	0x3e01d600	0.12679291
204	0x3e217f0c	0.15771121
205	0xbdf6fcda	-0.12059946
206	0x3d99caec	0.075094074
207	0x3dbc6b37	0.09200137
208	0xbe47400a	-0.19458023
209	0x3e185a49	0.14878191
210	0x3e331e32	0.17491987
211	0x3e1d441e	0.15358016
212	0x3e257053	0.1615613
213	0x3dd1db1f	0.10246872
214	0x3e8f1f1e	0.27953428
215	0xbd206e3e	-0.039167635
216	0xbe5570e7	-0.2084385
217	0xbd9b07e3	-0.07569864
218	0x3e54e04a	0.20788684
219	0x3e9cb9dd	0.30610552
220	0x3e0d655d	0.13808198
221	0xbe3992c9	-0.181224
222	0xbe5f6097	-0.2181419
223	0x3e5fbc0d	0.2184908
224	0x3d3b1d00	0.045681953
225	0x3d8e0d2f	0.06936108
226	0x3e1ce5ff	0.15322112
227	0x3d8db1c5	0.069186725
228	0xbe3e1f4f	-0.18566631
229	0x3eb5a553	0.35477695
230	0x3e1b2922	0.1515241
231	0x3e2a7a3d	0.16648193
232	0xbe5d6862	-0.2162185
233	0xbd73088b	-0.05933432
234	0x3df4c32e	0.1195129
235	0x3dd15cec	0.102228016
236	0xbe0b89a7	-0.13626729
237	0x3e2b4d79	0.16728772
238	0xbe9dc7fb	-0.30816635
239	0x3e16d8d2	0.14731148
240	0x3e099ec0	0.13439465
241	0x3e01a2cb	0.12659757
242	0x3e141144	0.14459711
243	0x3e08daf3	0.13364772
244	0xbe99f11a	-0.30066758
245	0xbe366ba6	-0.17814502
246	0x3d0d4a2d	0.034494568
247	0xbe4287d9	-0.18997134
248	0x3cd15553	0.025553381
249	0x3dfe9bed	0.12432084
250	0x3e5aac63	0.21354823
251	0xbebb2e19	-0.36558607
252	0xbea46e12	-0.32115227
253	0xbe455dd4	-0.19274074
254	0x3d82518b	0.06363209
255	0x3e178f87	0.14800845

output.bias f4 [2]
0	0xbda2e44c	-0.079537004
1	0x3d713098	0.058884233
